cnn.pth (torch, 678471 bytes, 10 tensors)

conv1.0.weight f4 [16, 1, 3, 3]
0	0x3dbee517	0.09321039
1	0x3dba915c	0.09109756
2	0x3dba0c39	0.090843625
3	0x3ddd2b59	0.107992835
4	0x3dd0d0ab	0.1019605
5	0x3dc83aac	0.09776816
6	0x3df91af0	0.12163341
7	0x3de1b781	0.11021329
8	0x3dcc0be7	0.09963208
9	0xa91a8791	-3.4312454e-14
10	0x2987e364	6.03465e-14
11	0xaa1576e5	-1.3275108e-13
12	0xa95279c3	-4.673498e-14
13	0xa9a669ee	-7.390257e-14
14	0xa9a3763a	-7.259163e-14
15	0x288199b8	1.4388542e-14
16	0xb0156e9f	-5.4363086e-10
17	0x27666864	3.1975502e-15
18	0x3d4e3548	0.05034378
19	0x3e36b85f	0.1784377
20	0x3e02c983	0.12772183
21	0x3ddeffbd	0.10888622
22	0x3e579920	0.21054506
23	0x3dc3d295	0.0956165
24	0x3de7d261	0.113194235
25	0x3de940dd	0.11389325
26	0x3de43495	0.11142842
27	0x3d6c1603	0.05763818
28	0xab976620	-1.0757541e-12
29	0x3c24569c	0.010030415
30	0x3def9180	0.11697674
31	0x3dd7d4f0	0.105386615
32	0x3de1febd	0.110349156
33	0x3df22e03	0.11825182
34	0x3e2f0d73	0.17094974
35	0x3e3437e0	0.1759944
36	0x3d4ffee3	0.05078019
37	0x3cbb3633	0.022852993
38	0x3d6ab751	0.05730373
39	0x3d7549b3	0.05988474
40	0x3d6d7410	0.057972014
41	0x3db426df	0.087964766
42	0x3d8551ab	0.065097176
43	0x3d772ad9	0.060343597
44	0x3d934306	0.07190518
45	0x2ad89bcd	3.8477416e-13
46	0xaad7db7a	-3.8343965e-13
47	0xaaa455c1	-2.9191756e-13
48	0xabc0468b	-1.3662e-12
49	0xab2264d5	-5.7693894e-13
50	0x2b1ea6cf	5.636437e-13
51	0xaaf63427	-4.3734566e-13
52	0x2b111864	5.1548197e-13
53	0x2a421782	1.7238817e-13
54	0x3df52248	0.11969429
55	0x3e44272c	0.19155568
56	0x3e2e7ec2	0.17040542
57	0x3df85051	0.12124694
58	0x3df49026	0.11941557
59	0x3e0f5ed8	0.14001024
60	0x3df4fbc2	0.119620815
61	0x3e1aba01	0.15110017
62	0x3e29de1a	0.16588631
63	0x3e18619e	0.14880988
64	0x3e07f400	0.13276672
65	0x3e0807d3	0.13284235
66	0x3e281a28	0.16416228
67	0x3dfa5eda	0.12225123
68	0x3df7a47a	0.12091918
69	0x3e099790	0.13436723
70	0x3dffaed2	0.12484516
71	0x3dfc84c2	0.12330009
72	0x3e236818	0.15957677
73	0x3e15971e	0.14608428
74	0x3e136ee5	0.14397772
75	0x3e1877e4	0.14889485
76	0x3e0b933d	0.13630386
77	0x3e0de15c	0.13855499
78	0x3e046389	0.12928595
79	0x3dff2ebf	0.12460088
80	0x3e00cbbd	0.1257772
81	0xa2c528de	-5.3440227e-18
82	0x241315eb	3.189411e-17
83	0x24ac0e2f	7.461714e-17
84	0xa370d3f0	-1.30553056e-17
85	0xa3d372d1	-2.2925292e-17
86	0x2605a611	4.6368706e-16
87	0xa3746f79	-1.3250872e-17
88	0x2dc15cb7	2.1982733e-11
89	0x27636ec3	3.1562622e-15
90	0x39012284	0.00012315257
91	0x39b4ac88	0.0003446082
92	0x3abb14e3	0.0014273193
93	0x3af203b6	0.0018464241
94	0x3b044f31	0.0020188803
95	0x3a9e0f74	0.0012059049
96	0x3c5abb16	0.013350269
97	0x3c01daaf	0.007925673
98	0x3bad0a9d	0.005280806
99	0x3da3f798	0.08006209
100	0x3dd56ca4	0.10421112
101	0x3df505d3	0.119640015
102	0x3df0c10b	0.1175557
103	0x3e061e2c	0.13097447
104	0x3ded6c11	0.11592878
105	0x3e035576	0.1282557
106	0x3e0b1c27	0.13584958
107	0x3df454ad	0.11930213
108	0xbc76dcbd	-0.015067277
109	0xbc82145b	-0.015878847
110	0xbc8077eb	-0.015682181
111	0x3ca4d0b5	0.02011905
112	0x3da62cc7	0.08114009
113	0x3d5338be	0.051567785
114	0xbddc382e	-0.10752903
115	0x3e1c9470	0.15291
116	0xbdf77076	-0.12081997
117	0x3e3dfd23	0.18553595
118	0x3e1862b3	0.14881401
119	0x3e10d6ed	0.14144488
120	0x3e1a5afb	0.15073769
121	0x3e342977	0.17593943
122	0x3e0dc1ce	0.13843462
123	0x3e0c92dd	0.13727899
124	0x3e0cb834	0.13742143
125	0x3e075c9b	0.1321892
126	0xba35b484	-0.0006931501
127	0xba2eb599	-0.00066646334
128	0xbaaa6920	-0.00130013
129	0x3da72f33	0.081632994
130	0x3d388c06	0.04505541
131	0x3999456e	0.00029234163
132	0x3e09d228	0.13459074
133	0xbd66cd68	-0.056348234
134	0xbd931402	-0.071815506
135	0x22534cfd	2.863659e-18
136	0x1fdbe17c	9.312314e-20
137	0x9ff44e6f	-1.0346778e-19
138	0x217145af	8.17462e-19
139	0x22ad6928	4.7003082e-18
140	0x229c6523	4.2390967e-18
141	0xa2a71c8e	-4.5295674e-18
142	0x2238d52f	2.5049508e-18
143	0x233e1bfe	1.0305848e-17

conv1.0.bias f4 [16]
0	0x2b19c710	5.4632774e-13
1	0xa596acd9	-2.6137978e-16
2	0xbb235046	-0.0024919673
3	0xb3bedbe3	-8.8875616e-08
4	0x2957e57a	4.793863e-14
5	0x28c78a2e	2.2153364e-14
6	0xbc43b795	-0.011945625
7	0xae40599b	-4.373533e-11
8	0xab6a887f	-8.3322926e-13
9	0x226ae911	3.1836298e-18
10	0xa988293a	-6.046765e-14
11	0x2b3a8fae	6.627987e-13
12	0xab189260	-5.4204384e-13
13	0xb1b0fd6d	-5.1510853e-09
14	0xaa3299e3	-1.5862966e-13
15	0x222e61c3	2.3633152e-18

conv2.0.weight f4 [32, 16, 3, 3]
0	0xa5c68f7d	-3.4444756e-16
1	0xa68941d2	-9.524125e-16
2	0x270207e9	1.8045412e-15
3	0xa6cb95b0	-1.4126528e-15
4	0x27b61281	5.053521e-15
5	0x2488a0e7	5.925318e-17
6	0xa71d2a5a	-2.1811086e-15
7	0x27910864	4.025468e-15
8	0x2740e8dc	2.6771586e-15
9	0xa65750cb	-7.4702604e-16
10	0x25bbb643	3.2562834e-16
11	0xa680ae15	-8.928969e-16
12	0xa6b1dce3	-1.2341714e-15
13	0xa7744f47	-3.3904779e-15
14	0xa7093cb8	-1.9045485e-15
15	0xa5bd9f68	-3.2894292e-16
16	0xa54d254f	-1.7793556e-16
17	0xa80383ac	-7.300513e-15
18	0xa9446a91	-4.3613174e-14
19	0x2a27d122	1.4905137e-13
20	0x2978f275	5.527736e-14
21	0x2abd864e	3.3666337e-13
22	0xaabcc76d	-3.3533888e-13
23	0xa9724235	-5.379222e-14
24	0xab32d1d9	-6.3529526e-13
25	0x2ab18244	3.1531906e-13
26	0x2a904f2a	2.563447e-13
27	0x296ccde2	5.25811e-14
28	0xaa9d3b79	-2.793007e-13
29	0x27b1f35e	4.939123e-15
30	0x26643488	7.9174584e-16
31	0x2a5aa500	1.9419535e-13
32	0xaa0f5db5	-1.2733463e-13
33	0x2abd7bf3	3.365915e-13
34	0x2a746ef6	2.1710051e-13
35	0x2a682aea	2.0620628e-13
36	0x26bfdfd9	1.3313961e-15
37	0xa627a3b7	-5.816164e-16
38	0x25cb43b2	3.526076e-16
39	0xa82eec12	-9.71013e-15
40	0x2819a2f8	8.528544e-15
41	0xa6c4bc31	-1.3651241e-15
42	0xa69316c6	-1.0206347e-15
43	0x27a9b4fa	4.710314e-15
44	0xa8172da7	-8.392083e-15
45	0x26961151	1.0413034e-15
46	0x2689c823	9.560532e-16
47	0x25b0f3b3	3.069627e-16
48	0xa4a54a61	-7.1683346e-17
49	0xa6ee4c9e	-1.6535335e-15
50	0xa692b9e5	-1.0181172e-15
51	0xa6616f50	-7.8213413e-16
52	0x273295c1	2.4783644e-15
53	0x271878b8	2.115968e-15
54	0xa9b8c3ff	-8.2052414e-14
55	0x2d4d4243	1.1667614e-11
56	0xb464690e	-2.1272373e-07
57	0xac407228	-2.734821e-12
58	0xb4361328	-1.695704e-07
59	0xaa9926c5	-2.7205161e-13
60	0xaa9fd4ca	-2.8391726e-13
61	0x2a2f8afc	1.5591342e-13
62	0xa85b333f	-1.2168054e-14
63	0x27e33cba	6.3070997e-15
64	0xa9c2fba7	-8.6589854e-14
65	0xa7b787c5	-5.0939905e-15
66	0x2780ebe3	3.5782886e-15
67	0x285fbf95	1.24205295e-14
68	0xa9e9f8e3	-1.03904536e-13
69	0x29e83f1c	1.03138174e-13
70	0x2965df0d	5.104168e-14
71	0xaa18a17c	-1.3556338e-13
72	0x2813eea0	8.211883e-15
73	0x281d13ac	8.719516e-15
74	0x26eb4102	1.6324021e-15
75	0xa9b325b2	-7.955736e-14
76	0x2773c41a	3.3829331e-15
77	0x29fcd1b1	1.1227424e-13
78	0xa91215a7	-3.2437293e-14
79	0x28aa2816	1.8891176e-14
80	0xa8c27f75	-2.1593602e-14
81	0xa1f3cb53	-1.652014e-18
82	0x22d591fd	5.7888337e-18
83	0x25410257	1.6740874e-16
84	0x22165bed	2.0377456e-18
85	0xa32c93a0	-9.3553995e-18
86	0xa16e5b3e	-8.0758295e-19
87	0x2452199a	4.5558177e-17
88	0xa328ae8a	-9.144258e-18
89	0xa0ab35da	-2.9004163e-19
90	0x25c1ad65	3.359766e-16
91	0x250e3912	1.2335873e-16
92	0x26102ecb	5.002345e-16
93	0x26bc847e	1.3081033e-15
94	0xa5d831e2	-3.750383e-16
95	0xa620853e	-5.569173e-16
96	0x2685cbcc	9.283968e-16
97	0xa5c2d0bd	-3.3795082e-16
98	0xa50fc283	-1.2469176e-16
99	0xa80b96f9	-7.748787e-15
100	0xa75ade02	-3.0373928e-15
101	0x279af76c	4.301184e-15
102	0xa79465b6	-4.1188527e-15
103	0xa87bb67d	-1.397287e-14
104	0xa8ac793f	-1.9148418e-14
105	0x286b0ce8	1.3047919e-14
106	0xa616b1f1	-5.228286e-16
107	0x27dd6785	6.145206e-15
108	0xaa05ebe4	-1.1894614e-13
109	0xa98fcf74	-6.386463e-14
110	0x2b518dfa	7.444875e-13
111	0xaa33d6e6	-1.5972952e-13
112	0x2996b64e	6.692963e-14
113	0xa9aec2f8	-7.760974e-14
114	0x2c33dfdb	2.5561695e-12
115	0x2a09622c	1.2202105e-13
116	0xaa2ceb79	-1.5358365e-13
117	0xa94db23a	-4.567373e-14
118	0xa8da132d	-2.4211178e-14
119	0x2a0f94be	1.2752557e-13
120	0xaa273cff	-1.4853742e-13
121	0x2a749992	2.1724834e-13
122	0x2a7b8364	2.2338864e-13
123	0xa9ab8b9d	-7.6181445e-14
124	0xa8c45e9a	-2.1801398e-14
125	0x2a035b2d	1.166677e-13
126	0xa9d23ccd	-9.3364207e-14
127	0xa9299c18	-3.7660928e-14
128	0xa9147783	-3.296626e-14
129	0x2915dab6	3.3274348e-14
130	0xa9867102	-5.970399e-14
131	0xa9a859b7	-7.476262e-14
132	0x2db561d3	2.062076e-11
133	0x2a13d781	1.3130991e-13
134	0x29d7b2cb	9.5789336e-14
135	0x213005d3	5.963883e-19
136	0x2114493f	5.024129e-19
137	0xa2317987	-2.405231e-18
138	0x211c07c7	5.286515e-19
139	0x212f7a61	5.9454273e-19
140	0xa1dffb54	-1.5177594e-18
141	0xa16517a3	-7.76195e-19
142	0xa16892c9	-7.8798926e-19
143	0xa0d7e44b	-3.6573488e-19
144	0xbd0bde76	-0.034147702
145	0xbd289898	-0.04116115
146	0xbd0a325a	-0.033739425
147	0x3d85a500	0.06525612
148	0x3db817db	0.08988925
149	0x3df2e3cb	0.11859854
150	0x3dcab46c	0.09897694
151	0x3def6b91	0.116904385
152	0x3e004e88	0.12529957
153	0xa5c8b4d6	-3.481701e-16
154	0x31224a01	2.361617e-09
155	0x3440294a	1.7896414e-07
156	0xad12b599	-8.339462e-12
157	0x327bb1f5	1.4650586e-08
158	0xa6ca6faf	-1.4046838e-15
159	0x250cc0c2	1.2208373e-16
160	0xa48d214f	-6.120543e-17
161	0x23ab8d74	1.8599765e-17
162	0xbd7065cc	-0.05869083
163	0xbdf301ed	-0.11865602
164	0x3da8f9b2	0.082507506
165	0x3da215bf	0.07914304
166	0x3d5c4fb3	0.053786945
167	0x3dca4068	0.09875566
168	0x3dcc1dd0	0.09966624
169	0x3e09cd90	0.13457322
170	0x3e159437	0.1460732
171	0xbda50a2a	-0.08058579
172	0xbd96e597	-0.073680095
173	0xbdfede2d	-0.124447204
174	0x3cb38924	0.02191598
175	0x3df6f9ec	0.120593876
176	0x3e0c14d6	0.13679823
177	0x3deefc4c	0.116692156
178	0x3dc9dc6e	0.09856497
179	0x3ceedea5	0.0291589
180	0x2c2d781a	2.4651448e-12
181	0xaacedb75	-3.674523e-13
182	0x3ad3d392	0.0016161075
183	0x3b543e7b	0.0032385874
184	0x3d6f24b2	0.058384605
185	0x3d72a8c5	0.059242982
186	0x3d15843b	0.036503058
187	0x3da2d702	0.07951166
188	0x3da2c5a8	0.07947856
189	0x35122360	5.4440716e-07
190	0x38c03f28	9.167037e-05
191	0xb656b760	-3.1995223e-06
192	0xac6c28e7	-3.3560322e-12
193	0x2f57fd53	1.9644135e-10
194	0x260dc8b0	4.9191184e-16
195	0x242fcaa0	3.8118706e-17
196	0xa933ee45	-3.995265e-14
197	0x239ae830	1.6795049e-17
198	0xbdf92575	-0.121653475
199	0xbdf92909	-0.1216603
200	0xbda5d681	-0.08097554
201	0x3bce6263	0.0062983497
202	0x3df72616	0.12067811
203	0x3e0e1727	0.1387602
204	0x3dda9f23	0.10674884
205	0x3e02cc48	0.1277324
206	0x3e0f3b08	0.13987362
207	0xbda2bd9b	-0.079463206
208	0xbd80f770	-0.06297195
209	0xbd63f24d	-0.055650998
210	0x3dcc3860	0.0997169
211	0x3d68dc7a	0.056850888
212	0x3de35800	0.11100769
213	0x3ddb1aea	0.10698493
214	0x3dd4218b	0.1035796
215	0x3e0a0f1c	0.13482326
216	0xbdbf7cea	-0.09349997
217	0xbdb8dae1	-0.09026123
218	0xbd8d1063	-0.06887891
219	0x3dcf13ac	0.10111174
220	0x3df17334	0.117895514
221	0x3e011067	0.12603913
222	0x3df6cf6e	0.12051283
223	0x3e013066	0.12616119
224	0x3e0f873c	0.14016432
225	0x256c7d72	2.051224e-16
226	0x239fbf53	1.7319844e-17
227	0xacf776a8	-7.0333357e-12
228	0xa733516d	-2.4885381e-15
229	0xa3789b55	-1.3477e-17
230	0x234c9aa7	1.1091611e-17
231	0xa20834a9	-1.8459315e-18
232	0xa3662eda	-1.2478246e-17
233	0x23278f38	9.083416e-18
234	0xbb84fd3f	-0.0040585096
235	0xbc00c76c	-0.007860046
236	0x2a14ff90	1.3233707e-13
237	0x3b38774b	0.0028147276
238	0x3c2e38f4	0.010633696
239	0x3ce769d2	0.028248701
240	0x3cdd0ca0	0.02698356
241	0x3d97b61f	0.07407784
242	0x3db31716	0.08744638
243	0xbd3329d0	-0.043741047
244	0xbd65d3a3	-0.056110036
245	0xbc54137c	-0.012944099
246	0x3dc477ad	0.09593139
247	0x3df77b70	0.12084091
248	0x3e08326b	0.13300483
249	0x3def345f	0.11679911
250	0x3e0804a6	0.13283023
251	0x3e0d5a65	0.13804014
252	0xbd1bdc30	-0.038051784
253	0xbbb28140	-0.0054475367
254	0xbd7c09b5	-0.061532695
255	0x3ad02411	0.0015879889

conv2.0.bias f4 [32]
0	0x2a1a881b	1.3725169e-13
1	0xbd413da7	-0.047177937
2	0xa94d2b1e	-4.5556542e-14
3	0xbd241474	-0.040058568
4	0x2aaa7fe3	3.0286806e-13
5	0x29aec41a	7.7611704e-14
6	0xa9ccde2a	-9.097959e-14
7	0x29000b10	2.8431305e-14
8	0x2a34e907	1.6068059e-13
9	0xbcfb25cd	-0.030657673
10	0xa990a751	-6.4239094e-14
11	0xbb1d15ff	-0.002396941
12	0x27aaf48d	4.744962e-15
13	0xbc45a106	-0.012062317
14	0xa9cd4efe	-9.117532e-14
15	0xbd5c88f5	-0.05384155
16	0xa8b51e55	-2.0108191e-14
17	0xa9df0904	-9.9047533e-14
18	0xaa9b45b6	-2.7581903e-13
19	0x2a71512e	2.1433265e-13
20	0x29ba51e1	8.274263e-14
21	0x2a94250e	2.6315793e-13
22	0xa78c1116	-3.887633e-15
23	0x25148b52	1.2884157e-16
24	0xb819f53e	-3.6706442e-05
25	0xbcfb0be3	-0.030645316
26	0xb9a7d120	-0.00032008532
27	0x29efa2d5	1.0641979e-13
28	0x29c7c698	8.871826e-14
29	0x291f2045	3.533308e-14
30	0x2932c2a4	3.9692764e-14
31	0x2847cd52	1.1091241e-14

conv3.0.weight f4 [64, 32, 3, 3]
0	0xa7a3f84e	-4.55108e-15
1	0x29fc865a	1.12143544e-13
2	0xaa4d44cc	-1.8231526e-13
3	0x2a13e8d7	1.3137005e-13
4	0xa9c2b892	-8.6473485e-14
5	0xaad874da	-3.845039e-13
6	0xa95f1e92	-4.9542462e-14
7	0xac3d0a1e	-2.6864132e-12
8	0x2a0c2ae1	1.2449374e-13
9	0xab617064	-8.009203e-13
10	0x30402b04	6.991032e-10
11	0xb192cec8	-4.2726676e-09
12	0xb684ad25	-3.9540632e-06
13	0xb877255a	-5.8924175e-05
14	0xb5737a66	-9.070267e-07
15	0xb7042aeb	-7.877806e-06
16	0xb79f7de7	-1.9012905e-05
17	0xb39ae90b	-7.213574e-08
18	0xaa0efca4	-1.2699786e-13
19	0xaa22dab2	-1.4464366e-13
20	0xab2b7137	-6.090852e-13
21	0xb0c77b92	-1.4514276e-09
22	0xacb0e263	-5.027355e-12
23	0x2b88eee4	9.729687e-13
24	0xa8ab5bdf	-1.9024656e-14
25	0xaa151c94	-1.3243773e-13
26	0xa959c345	-4.835305e-14
27	0x284fc284	1.1532987e-14
28	0x2b265e2b	5.910573e-13
29	0x2acd7621	3.6497284e-13
30	0x2afd514a	4.4998234e-13
31	0x2b7c94bd	8.97348e-13
32	0xab314e83	-6.299199e-13
33	0xaa615452	-2.0013269e-13
34	0xaa8c09c4	-2.4875772e-13
35	0xaa1db186	-1.4005992e-13
36	0xab6627d1	-8.176767e-13
37	0xad968d23	-1.7115703e-11
38	0xb394b2c1	-6.924302e-08
39	0x2c8793eb	3.853353e-12
40	0xb0e6f5fe	-1.6804618e-09
41	0x29f15349	1.07169976e-13
42	0x2b15f76a	5.327879e-13
43	0x2c198605	2.1817003e-12
44	0x2be745ee	1.6432947e-12
45	0xa23cda55	-2.5594335e-18
46	0xa51d63e9	-1.365143e-16
47	0xa4de72c9	-9.6471607e-17
48	0x24712745	5.2291807e-17
49	0xa3ec15e7	-2.5596447e-17
50	0x22ea4cbe	6.350708e-18
51	0x22d168cd	5.6760526e-18
52	0xa2038f44	-1.7829655e-18
53	0x2284beb5	3.598059e-18
54	0xa8408fb6	-1.0689303e-14
55	0x2a71b953	2.1469397e-13
56	0x28c3eef5	2.175298e-14
57	0x2f05b279	1.2159686e-10
58	0x2efc814e	1.14826024e-10
59	0x2b22838b	5.7736514e-13
60	0xaf976399	-2.7537508e-10
61	0x31a67b21	4.845234e-09
62	0xa8f1b37b	-2.6834212e-14
63	0xa8b8a5b0	-2.0499959e-14
64	0x29c0a315	8.554803e-14
65	0xa946ff07	-4.4186033e-14
66	0x293ae774	4.150105e-14
67	0xaa4dcd6e	-1.827893e-13
68	0x2956a269	4.7658414e-14
69	0x29d0fbb2	9.280718e-14
70	0x2a018f29	1.150717e-13
71	0xa9bc236c	-8.355022e-14
72	0x28bfca36	2.1292955e-14
73	0xb0be0fec	-1.3828845e-09
74	0xab678e9b	-8.226559e-13
75	0xac3dffa6	-2.7000429e-12
76	0xa96d67e6	-5.271469e-14
77	0x28e80cf6	2.5762795e-14
78	0x2c480056	2.8421896e-12
79	0x2dfc6793	2.869508e-11
80	0x2916e4f8	3.350529e-14
81	0xaa53d01d	-1.8812768e-13
82	0x2aabfd69	3.055154e-13
83	0xab0f8996	-5.0994744e-13
84	0xab87c86a	-9.647953e-13
85	0x2bb9f931	1.3214205e-12
86	0xa9f2d7aa	-1.07843706e-13
87	0x2aa45425	2.919064e-13
88	0xab4eb4ef	-7.3437e-13
89	0x2b39103f	6.574775e-13
90	0x2aabe618	3.0535362e-13
91	0xb539d00f	-6.9220636e-07
92	0xabc9ade1	-1.433017e-12
93	0x2fde02a0	4.038343e-10
94	0x2e8fe47f	6.543476e-11
95	0xac0e4b83	-2.0221331e-12
96	0xac84b733	-3.772005e-12
97	0xb1b1792b	-5.165153e-09
98	0x29e4b90b	1.0157334e-13
99	0x2aed3cfb	4.214197e-13
100	0x2af9f9ce	4.4404622e-13
101	0x2acea227	3.6705467e-13
102	0xabc355e1	-1.387942e-12
103	0xae53aab9	-4.8127478e-11
104	0x2b8544a6	9.469272e-13
105	0x2b962b3a	1.0670139e-12
106	0x2c006c17	1.8249896e-12
107	0x2adf8a7a	3.9708845e-13
108	0xa2c80fa8	-5.4226685e-18
109	0xa304ceb4	-7.1995054e-18
110	0xa343b453	-1.0609156e-17
111	0xa2ab0718	-4.6357154e-18
112	0x23e459ce	2.4757843e-17
113	0xa2ae20f8	-4.71977e-18
114	0x20e49613	3.8724013e-19
115	0xa15aa32d	-7.4077234e-19
116	0x2107bb1e	4.5987427e-19
117	0xa9bdd296	-8.429817e-14
118	0x282e06cb	9.660413e-15
119	0x2a14a84c	1.320343e-13
120	0x2ab1843a	3.1533267e-13
121	0xaaed8b2f	-4.2196235e-13
122	0x2a922af2	2.596461e-13
123	0x2a5ccd95	1.9611251e-13
124	0x29f198ef	1.072908e-13
125	0x2a3649b3	1.6190417e-13
126	0x2a7b0a1a	2.2296783e-13
127	0xa832589c	-9.900199e-15
128	0xad432ad1	-1.1093974e-11
129	0xab1dc5bd	-5.605202e-13
130	0xada69d47	-1.894186e-11
131	0x2b16338d	5.3362246e-13
132	0xa918f810	-3.396594e-14
133	0x2bd1759b	1.4882985e-12
134	0x2b6c211c	8.388999e-13
135	0xabc67395	-1.4100827e-12
136	0xad434c3d	-1.1101395e-11
137	0xae84a450	-6.031853e-11
138	0xad15bb50	-8.511261e-12
139	0xb4009dad	-1.1978291e-07
140	0x2f05e161	1.217635e-10
141	0x2b9904c9	1.0872632e-12
142	0xaa866947	-2.3876232e-13
143	0xab5a6f33	-7.760348e-13
144	0x27e24fa9	6.281397e-15
145	0xa87805d4	-1.3768029e-14
146	0xa798599b	-4.2285625e-15
147	0x278aa154	3.8477607e-15
148	0x28842b58	1.4673741e-14
149	0xa6cf85ea	-1.4399808e-15
150	0xa2464ffe	-2.6876351e-18
151	0xa31cf28e	-8.50814e-18
152	0x25416356	1.6773738e-16
153	0x2acbb45c	3.6185193e-13
154	0xb3cd1ac5	-9.550926e-08
155	0xb0729178	-8.824581e-10
156	0xab0307be	-4.6551294e-13
157	0x2b9d943e	1.1196666e-12
158	0x2aeb58c0	4.1805968e-13
159	0xadbe2d44	-2.1620601e-11
160	0x2cce451a	5.862544e-12
161	0xacfe8b28	-7.2345636e-12
162	0xab91ad49	-1.0350966e-12
163	0xac1b4462	-2.2064785e-12
164	0xac14a44f	-2.1123275e-12
165	0xb485ec16	-2.4944956e-07
166	0xb66042ff	-3.3417598e-06
167	0xac8afae3	-3.95005e-12
168	0x2f9c80bb	2.8467703e-10
169	0xae7be3dd	-5.7273176e-11
170	0x2c2e15d9	2.4739015e-12
171	0xa876c821	-1.3699139e-14
172	0xaa78eb2f	-2.210842e-13
173	0xa7987391	-4.2313772e-15
174	0xb1f3a330	-7.090783e-09
175	0xb38d422f	-6.577863e-08
176	0xab1f670d	-5.663116e-13
177	0xace174eb	-6.407865e-12
178	0x2e8d2182	6.41789e-11
179	0x2d145493	8.431605e-12
180	0xb187ee04	-3.9560764e-09
181	0x2acd14ec	3.6429833e-13
182	0xb738dbce	-1.1018432e-05
183	0x37a8bc05	2.0114714e-05
184	0xb646e57e	-2.9637881e-06
185	0xb09b4a69	-1.1298883e-09
186	0x36277297	2.495164e-06
187	0x3628c19f	2.5146653e-06
188	0x352ca278	6.4311416e-07
189	0xa8da8472	-2.4260301e-14
190	0x28a295c9	1.8050572e-14
191	0xa941c381	-4.302418e-14
192	0x28825ef0	1.4474072e-14
193	0x28c192d5	2.1490983e-14
194	0xa9cb70c1	-9.0345706e-14
195	0x2849543e	1.11760085e-14
196	0xa83d794f	-1.0517912e-14
197	0xa8744ccd	-1.3561374e-14
198	0x24c504af	8.5443066e-17
199	0x22dba674	5.953631e-18
200	0xa2ebdd86	-6.3931425e-18
201	0xa3831780	-1.4213001e-17
202	0xa3909c22	-1.5678636e-17
203	0xa30878cf	-7.398157e-18
204	0xa457609d	-4.6702528e-17
205	0x241a5fff	3.347474e-17
206	0xa0cc5d19	-3.462055e-19
207	0xa2216920	-2.1875221e-18
208	0xa1dae81e	-1.4833696e-18
209	0x2407c6e0	2.9441912e-17
210	0x2a89fc7c	2.4511285e-13
211	0xa65ce025	-7.6631605e-16
212	0xa1d997a6	-1.4744633e-18
213	0xa4fe5125	-1.10292405e-16
214	0xa50b1862	-1.206459e-16
215	0x21f49ec7	1.6576111e-18
216	0xa92045e6	-3.5587764e-14
217	0xa8ad75f0	-1.9258006e-14
218	0xa8ef87c2	-2.6593206e-14
219	0xa92320db	-3.6221768e-14
220	0x2976374d	5.467094e-14
221	0x28bdcff3	2.1073399e-14
222	0x2832484c	9.896662e-15
223	0xa99f6263	-7.078086e-14
224	0x294d2888	4.55543e-14
225	0xaaf7be5e	-4.4008108e-13
226	0x2b01a5f4	4.606031e-13
227	0x2b5c3050	7.822675e-13
228	0xa94392c5	-4.3426e-14
229	0x2c22d13a	2.3137729e-12
230	0xac18c292	-2.1708507e-12
231	0x2c16554f	2.1363638e-12
232	0x2c9ea647	4.5090906e-12
233	0xac783bdc	-3.5276148e-12
234	0xa9009a94	-2.8555785e-14
235	0xa8e3809a	-2.5257835e-14
236	0xa7d73d57	-5.9740992e-15
237	0x29d143fa	9.2932565e-14
238	0x2a765b3f	2.1880846e-13
239	0x29ee8e2a	1.0593985e-13
240	0xaa486129	-1.7797278e-13
241	0xaa13342c	-1.3074324e-13
242	0xa91e87bd	-3.5200782e-14
243	0x2438d382	4.0077794e-17
244	0xa3f54a24	-2.6594353e-17
245	0x23a2218f	1.7578288e-17
246	0x247b4a30	5.4489788e-17
247	0xa450a97f	-4.524638e-17
248	0x240e851d	3.0904093e-17
249	0x23389113	1.0005381e-17
250	0xa31d6d79	-8.534169e-18
251	0xa33b3679	-1.0148825e-17
252	0x2debd1b7	2.6809539e-11
253	0x285980ca	1.20738465e-14
254	0xadf59cc6	-2.7922897e-11
255	0x2b2ec8b3	6.2095744e-13

conv3.0.bias f4 [64]
0	0xab9d4b6f	-1.1176458e-12
1	0xa3b084c5	-1.9138188e-17
2	0x2b38ca38	6.5650567e-13
3	0xaa69f4d9	-2.0779506e-13
4	0x2a6372d3	2.0201488e-13
5	0x289f4d70	1.768613e-14
6	0x2994dcef	6.610846e-14
7	0xa7561d66	-2.9714403e-15
8	0xbba2d8a7	-0.0049696746
9	0x294a9b6b	4.4987814e-14
10	0x2811e2d1	8.0983e-15
11	0xba8bad85	-0.0010656571
12	0xb9bf18fa	-0.00036448968
13	0xaac3062b	-3.4643238e-13
14	0x29d8cc18	9.6277316e-14
15	0xaab609a6	-3.233639e-13
16	0xbda2ef4a	-0.07955797
17	0x2a499941	1.7905557e-13
18	0xaa27a3a4	-1.4889354e-13
19	0xbc7421b6	-0.014900615
20	0x2cba4364	5.29392e-12
21	0xaa3a3d5a	-1.6541404e-13
22	0xa8ffd54a	-2.8403187e-14
23	0xa8c6689b	-2.2027781e-14
24	0x26f186a8	1.6759233e-15
25	0xab6dda5d	-8.4502354e-13
26	0x2902cc8c	2.9043215e-14
27	0x288c1f7a	1.5556773e-14
28	0xb17ac7ad	-3.649329e-09
29	0xaaafe420	-3.1244538e-13
30	0xbda4dbcb	-0.08049735
31	0x29baf814	8.303094e-14
32	0xa79d3ec7	-4.3644317e-15
33	0xbbc981dc	-0.0061495136
34	0x2ae8cffd	4.13558e-13
35	0x2789b874	3.8225123e-15
36	0xbb08d1bf	-0.0020876972
37	0xa2983a1a	-4.12612e-18
38	0xb949cdd1	-0.00019245526
39	0xbdc77e6d	-0.09740911
40	0xaaded1d3	-3.9580717e-13
41	0xbdc40358	-0.0957095
42	0x29064208	2.981125e-14
43	0x2b067ad0	4.77768e-13
44	0xab8e4524	-1.0108897e-12
45	0x29f36a0d	1.0809765e-13
46	0x28bf52c5	2.1241155e-14
47	0xaa797399	-2.2155749e-13
48	0x2998f3f3	6.7924744e-14
49	0x28f0043c	2.6647189e-14
50	0xa58b669f	-2.4182195e-16
51	0xbd593854	-0.053032234
52	0xaab289c9	-3.171476e-13
53	0xa8b4da54	-2.00787e-14
54	0x2683c1ea	9.142512e-16
55	0xa96b8114	-5.229244e-14
56	0xaa7e99ba	-2.2613066e-13
57	0xab350cbe	-6.43218e-13
58	0xab48265b	-7.11075e-13
59	0x28cbb8c6	2.261766e-14
60	0x2b50669b	7.403884e-13
61	0x24d27a29	9.127993e-17
62	0xa6a49437	-1.141996e-15
63	0xa91f94b5	-3.5434075e-14

conv4.0.weight f4 [128, 64, 3, 3]
0	0xaced2e4b	-6.7410847e-12
1	0x28fc1174	2.798519e-14
2	0x315200ec	3.0559546e-09
3	0x288bba23	1.5512824e-14
4	0x28890b9f	1.5215095e-14
5	0xaba18430	-1.1476427e-12
6	0xa6901b14	-9.999347e-16
7	0xa8421567	-1.0773804e-14
8	0x292d70b3	3.8511468e-14
9	0xa1015415	-4.381818e-19
10	0x2161b21c	7.646869e-19
11	0xa1062ac9	-4.545759e-19
12	0x21624012	7.6656575e-19
13	0x2145a700	6.696722e-19
14	0x20f19e87	4.0931893e-19
15	0xa0ee337d	-4.035284e-19
16	0xa07cea9f	-2.142286e-19
17	0xa08f6208	-2.4290014e-19
18	0x262f0f33	6.073592e-16
19	0xad260a9b	-9.438362e-12
20	0x2a761381	2.1855956e-13
21	0x272e27c1	2.4168901e-15
22	0xa63ffdbc	-6.661031e-16
23	0x2aa76532	2.9735378e-13
24	0x269631c1	1.0421827e-15
25	0xa59097be	-2.5082843e-16
26	0x269730de	1.0490975e-15
27	0xa5428150	-1.687063e-16
28	0x25df54ec	3.874188e-16
29	0xa64cf428	-7.110761e-16
30	0xa64f9dce	-7.2031417e-16
31	0xa7091b1b	-1.9027263e-15
32	0x26fd8284	1.7590778e-15
33	0xa6dea6a9	-1.5449518e-15
34	0x24fb2b72	1.089275e-16
35	0x2635b58c	6.304303e-16
36	0x290364b4	2.917519e-14
37	0xa8ba9365	-2.071407e-14
38	0x28edc890	2.6399266e-14
39	0x28a2c023	1.8068939e-14
40	0x28a35dc3	1.8137298e-14
41	0x2c506583	2.9614928e-12
42	0x29359866	4.0322258e-14
43	0xa93009ee	-3.9088463e-14
44	0x297d0609	5.618252e-14
45	0xa60d28cd	-4.89745e-16
46	0x273797a1	2.547855e-15
47	0x269553ec	1.0361699e-15
48	0x263328a9	6.2158205e-16
49	0x2763bc01	3.1604495e-15
50	0x259dddb1	2.7385383e-16
51	0xa61020bb	-5.0004394e-16
52	0xa4d1dd08	-9.101374e-17
53	0x25b3c3e8	3.1184301e-16
54	0x2464df5e	4.962882e-17
55	0x25a78268	2.905825e-16
56	0x279a64cb	4.2852866e-15
57	0x2663d45c	7.9044246e-16
58	0x275a7abb	3.032011e-15
59	0xa7c04d72	-5.337467e-15
60	0xa6d16fbc	-1.4532574e-15
61	0x272342d8	2.265703e-15
62	0x270a21b6	1.9169622e-15
63	0xa1564ec8	-7.2610286e-19
64	0xa1850007	-9.012438e-19
65	0x210721c4	4.578447e-19
66	0xa00406d1	-1.118309e-19
67	0xa0f1d39b	-4.0967017e-19
68	0xa0989e83	-2.5854696e-19
69	0xa1640c89	-7.7265995e-19
70	0xa07d9d9c	-2.1482082e-19
71	0x20716559	2.0447027e-19
72	0xa1aec578	-1.1842968e-18
73	0x22478319	2.7038932e-18
74	0x2278a065	3.369518e-18
75	0x224391d8	2.6504637e-18
76	0xa19eaf33	-1.0752871e-18
77	0x21c7ac24	1.353033e-18
78	0xa1032e3f	-4.4445733e-19
79	0x21dd018f	1.4975955e-18
80	0x210ef406	4.8434434e-19
81	0x251f1031	1.3796537e-16
82	0xa467a753	-5.023187e-17
83	0xa70306ba	-1.8183549e-15
84	0xa4dc2610	-9.547427e-17
85	0x2581e534	2.2533247e-16
86	0x257c7efc	2.190054e-16
87	0x2462bdc2	4.916667e-17
88	0x2441976f	4.1978473e-17
89	0xa63b888b	-6.506371e-16
90	0xa7306cda	-2.4483915e-15
91	0x27545c4f	2.947095e-15
92	0x27f8e066	6.907712e-15
93	0x27ac5840	4.783527e-15
94	0x2819a0df	8.5280895e-15
95	0xa8528a65	-1.1687351e-14
96	0x2416db9b	3.2712078e-17
97	0xa7d81285	-5.9972122e-15
98	0x283af5bf	1.0378362e-14
99	0x24495ed7	4.366526e-17
100	0x21b41fdf	1.2205711e-18
101	0xa391f72f	-1.5825618e-17
102	0x2142f35b	6.6051835e-19
103	0xa4aa3ea2	-7.383185e-17
104	0x2463c9d3	4.939373e-17
105	0xa4b6c991	-7.9271385e-17
106	0x2456a49c	4.6543283e-17
107	0x24f46b22	1.0599962e-16
108	0xa0606836	-1.9008019e-19
109	0xa36671a5	-1.249239e-17
110	0xa6ecbd16	-1.6427041e-15
111	0xa0ff4c88	-4.3249324e-19
112	0xa4344ccb	-3.9096324e-17
113	0xa31dc831	-8.553379e-18
114	0xa4c8f1f6	-8.714607e-17
115	0xa1aa330c	-1.153316e-18
116	0xa1f9061d	-1.6874514e-18
117	0xa55416ed	-1.8395836e-16
118	0xa5cb8749	-3.530656e-16
119	0xa6e5df30	-1.5950562e-15
120	0xa70d146b	-1.957875e-15
121	0x2746ac9a	2.7571587e-15
122	0x26e7c9b6	1.6083519e-15
123	0xa5e2256c	-3.9230109e-16
124	0x2678b850	8.6292074e-16
125	0xa6734cc0	-8.4411577e-16
126	0x20a4141e	2.7795993e-19
127	0xa0cad5b8	-3.4361558e-19
128	0xa151767d	-7.096877e-19
129	0xa108bf70	-4.633196e-19
130	0x212d5fec	5.874163e-19
131	0xa00919d4	-1.1612897e-19
132	0x2027dad0	1.4217849e-19
133	0x9ff2411a	-1.0259869e-19
134	0x9ffd5637	-1.072923e-19
135	0xa8eae8d5	-2.6080194e-14
136	0x28acce34	1.9185262e-14
137	0x2ab9f9d4	3.3035955e-13
138	0x291c50b0	3.4708944e-14
139	0xa9bbc580	-8.338729e-14
140	0xa94f73e4	-4.6063752e-14
141	0x28df2a4b	2.4776315e-14
142	0x2959c6f2	4.8356237e-14
143	0xa9add9c1	-7.7205176e-14
144	0x278e8e8f	3.956748e-15
145	0xa845e1c3	-1.0984651e-14
146	0x28457a6f	1.0962245e-14
147	0xa8f29326	-2.6931213e-14
148	0xa7dd725c	-6.146381e-15
149	0xa886b9fe	-1.495765e-14
150	0x2692250f	1.014083e-15
151	0xa5f58f00	-4.2597626e-16
152	0x27de4ec1	6.1702763e-15
153	0x2083c5bc	2.2323113e-19
154	0x21d185a1	1.4197762e-18
155	0xa1b7ed85	-1.2463433e-18
156	0x1fc87ff2	8.491496e-20
157	0x21bc4f31	1.2760337e-18
158	0x20947963	2.5152502e-19
159	0xa162b165	-7.680656e-19
160	0x20763f0c	2.0857871e-19
161	0xa092af7f	-2.4849496e-19
162	0x22c6a364	5.3841004e-18
163	0xa27cdbbf	-3.4268701e-18
164	0xa1b46d9b	-1.2226287e-18
165	0xa0019fd2	-1.0979605e-19
166	0xa0e0f3a0	-3.8108294e-19
167	0xa0f69a65	-4.177619e-19
168	0x21244cca	5.566699e-19
169	0xa15f0ea3	-7.557471e-19
170	0x214f4b40	7.023392e-19
171	0xa04688f3	-1.6816565e-19
172	0xa14ce6c7	-6.942332e-19
173	0xa0a3f53d	-2.777556e-19
174	0xa0b31140	-3.0335195e-19
175	0x1fd9ff24	9.232517e-20
176	0x1f7926d9	5.2759935e-20
177	0x1fdda6a4	9.3872824e-20
178	0xa11a3abf	-5.225498e-19
179	0xa1b81668	-1.2474256e-18
180	0xa39d91f9	-1.7083796e-17
181	0x22a1e016	4.3876398e-18
182	0x24644d0c	4.950488e-17
183	0x2497b103	6.578568e-17
184	0x23a8d7d0	1.8305997e-17
185	0xa520c786	-1.3945389e-16
186	0xa44b89c1	-4.413529e-17
187	0x242c75a9	3.7396217e-17
188	0x251764aa	1.3131269e-16
189	0x245116df	4.5339023e-17
190	0xa55763b5	-1.868206e-16
191	0x27a45c18	4.5618992e-15
192	0xa4a1364e	-6.9914616e-17
193	0xa4ba4119	-8.077492e-17
194	0xa71e8711	-2.2000124e-15
195	0x251562e2	1.2957193e-16
196	0xa4bb90b1	-8.134344e-17
197	0x25c50539	3.4177591e-16
198	0x20ba8de6	3.1603526e-19
199	0x21ba42e7	1.2621559e-18
200	0xa07c88a6	-2.1390443e-19
201	0xa019bf03	-1.3022805e-19
202	0x20a55eed	2.8014904e-19
203	0xa238e106	-2.5055776e-18
204	0x9f183ae2	-3.223596e-20
205	0xa10a4b89	-4.685619e-19
206	0x20f775a4	4.1921276e-19
207	0x248f27f3	6.208404e-17
208	0xa389936f	-1.491601e-17
209	0x24a8ec45	7.325864e-17
210	0x24909db4	6.2717205e-17
211	0x22e362fe	6.1633285e-18
212	0xa5c587d0	-3.4266083e-16
213	0xa4883c37	-5.9082606e-17
214	0x252f9185	1.5228134e-16
215	0xa4c31f06	-8.4620325e-17
216	0xa0fafd9c	-4.2519472e-19
217	0xa074faa9	-2.075054e-19
218	0xa3293fb8	-9.175001e-18
219	0xa1c1e45c	-1.3138635e-18
220	0x21880757	9.217661e-19
221	0xa267c480	-3.1410364e-18
222	0xa031bf9c	-1.5055881e-19
223	0x9db868e3	-4.8812845e-21
224	0x242a5742	3.6936784e-17
225	0xa9162b1a	-3.3344075e-14
226	0xaba2c077	-1.1564212e-12
227	0x2e0ebc3b	3.2454244e-11
228	0xa776214c	-3.4157408e-15
229	0x28ffe5f4	2.8410413e-14
230	0xabe36a84	-1.6158884e-12
231	0x274e1b41	2.8603017e-15
232	0x29ce0a1f	9.1499935e-14
233	0xa8969b20	-1.672062e-14
234	0x2726c9a5	2.314644e-15
235	0x283fd8d3	1.0649646e-14
236	0x23d1bf74	2.2740909e-17
237	0x2727931e	2.3255658e-15
238	0xa86dd017	-1.3201265e-14
239	0xa8211fd8	-8.9442e-15
240	0xa69fca9c	-1.1087759e-15
241	0xa76eec17	-3.315712e-15
242	0xa76ab49b	-3.257193e-15
243	0xa100219c	-4.341257e-19
244	0x20476f35	1.6892751e-19
245	0xa02235c7	-1.3739727e-19
246	0xa058c132	-1.8359835e-19
247	0x21a72f99	1.1328959e-18
248	0x218ea3a7	9.665613e-19
249	0xa11ad0a8	-5.2453384e-19
250	0xa0a0d185	-2.7243703e-19
251	0x209c57b6	2.648547e-19
252	0x20a307b1	2.7618364e-19
253	0x2258b193	2.9367466e-18
254	0x21f9085c	1.6875109e-18
255	0xa13a5722	-6.313457e-19

conv4.0.bias f4 [128]
0	0x27bce6d6	5.2430755e-15
1	0xaa4ad6e7	-1.8015763e-13
2	0x25093a84	1.1902682e-16
3	0xaa261e57	-1.4754288e-13
4	0x27d8b403	6.0147212e-15
5	0x295315d2	4.6870338e-14
6	0x2ab5710e	3.2230506e-13
7	0x28a25881	1.8023995e-14
8	0x2b02a413	4.6412977e-13
9	0x2a857849	2.370901e-13
10	0xbe0efa54	-0.1396268
11	0x29953319	6.625793e-14
12	0x27a4eea8	4.5777896e-15
13	0xa972b3b4	-5.3890662e-14
14	0x2bbe4ee9	1.3522214e-12
15	0x27ea7315	6.507282e-15
16	0x3ce636d8	0.028102323
17	0xa98e243d	-6.312353e-14
18	0xbe12f351	-0.1435063
19	0xa8c0ba97	-2.1397203e-14
20	0xaa248e27	-1.4615445e-13
21	0x26f56614	1.7027958e-15
22	0x2aae66a8	3.097984e-13
23	0x2aa39251	2.9056144e-13
24	0xa98fed9f	-6.3916964e-14
25	0x2a86240f	2.3828202e-13
26	0xa8e29075	-2.5153689e-14
27	0xbe04be84	-0.12963301
28	0x29df221b	9.909106e-14
29	0x2b3784fb	6.519921e-13
30	0x3d4ede8d	0.05050521
31	0xaa1e5b52	-1.4064902e-13
32	0xbe0310a2	-0.12799314
33	0xbdc0fb5a	-0.094229415
34	0xaa8d1130	-2.5058558e-13
35	0x3cb76b11	0.02238992
36	0x2af77f27	4.3964244e-13
37	0xbdff1f8e	-0.124571905
38	0x28d333d8	2.344819e-14
39	0xa787de0b	-3.7710767e-15
40	0xa767044a	-3.2060015e-15
41	0xbdddd3d1	-0.108314164
42	0xbdb01825	-0.08598355
43	0xbdf95c2c	-0.121757835
44	0x28f9f851	2.7752243e-14
45	0x29ca4c61	8.983852e-14
46	0xbdb369e7	-0.08760434
47	0xaadb267d	-3.8928921e-13
48	0xbdc824a1	-0.097726114
49	0x2ac8e2b9	3.5684457e-13
50	0x2ace0f3a	3.6603516e-13
51	0xbdd01fa3	-0.10162284
52	0x279d67cd	4.3688795e-15
53	0x2a363340	1.6182628e-13
54	0x29b854f3	8.185978e-14
55	0x290f7ad0	3.18589e-14
56	0xbdc7de1d	-0.097591616
57	0xa93cc78d	-4.191747e-14
58	0x2a34447c	1.6010972e-13
59	0x2b068723	4.7793903e-13
60	0x25487a85	1.7388746e-16
61	0xa99be2eb	-6.922747e-14
62	0x2a312ce1	1.5736329e-13
63	0xbdcc6a78	-0.09981245
64	0xbde185eb	-0.11011871
65	0x29d26763	9.343808e-14
66	0xab1673e2	-5.3451525e-13
67	0x29a32e24	7.246658e-14
68	0xa64780f3	-6.9216753e-16
69	0xa8b34aff	-1.9905517e-14
70	0xa4c702e7	-8.630741e-17
71	0xbdecfec2	-0.11572029
72	0x27e6b990	6.403901e-15
73	0xbe08ba6e	-0.13352367
74	0xaae23dda	-4.0188583e-13
75	0xa9f89d24	-1.1040672e-13
76	0xa947ff7e	-4.440848e-14
77	0x2ab77397	3.2587537e-13
78	0xaa70f71c	-2.1402015e-13
79	0x2a43fdec	1.7407576e-13
80	0x286262a2	1.2566908e-14
81	0xa8e9bff3	-2.5951441e-14
82	0x277f24ca	3.5408302e-15
83	0xbe06ec8d	-0.13176174
84	0xbe05ddfe	-0.13072965
85	0xbc221109	-0.009891757
86	0xaa61b899	-2.004806e-13
87	0xab42fc8d	-6.927313e-13
88	0xbdad5bf3	-0.084648035
89	0xa79d464c	-4.365247e-15
90	0xbd765bc5	-0.060146112
91	0x3da92098	0.0825817
92	0x2ae840f0	4.1256538e-13
93	0xa88fd582	-1.5968784e-14
94	0xbe11311a	-0.14178887
95	0xaabc7d67	-3.3482524e-13
96	0x2a987d4d	2.708757e-13
97	0x2abad7b5	3.3189914e-13
98	0xbe109051	-0.14117552
99	0xaa37da6b	-1.6329444e-13
100	0xbe051608	-0.12996686
101	0xbe0b83c3	-0.13624482
102	0x2a0fec18	1.2782863e-13
103	0xbc6307dc	-0.013856854
104	0x27083e76	1.8907652e-15
105	0xa73887ac	-2.5608677e-15
106	0xbe10d399	-0.14143218
107	0x2a9b1e0b	2.7554378e-13
108	0xbd150c34	-0.03638859
109	0x2a1565c6	1.3269168e-13
110	0xa9ed8623	-1.0548183e-13
111	0xbe10b144	-0.14130121
112	0xbe0b3446	-0.1359416
113	0xbe02504f	-0.12725948
114	0xbdd28c4c	-0.10280666
115	0x2a982ef7	2.7033212e-13
116	0xbd849aa1	-0.064748056
117	0xa686d221	-9.355073e-16
118	0x2ac32ea6	3.4671327e-13
119	0xbd620d76	-0.05518862
120	0xab0e4ca4	-5.0554894e-13
121	0xbe0bbcc5	-0.13646229
122	0x25907526	2.50594e-16
123	0xaa70369f	-2.1335233e-13
124	0xbe017663	-0.12642817
125	0xbe10e6d7	-0.14150558
126	0xa93e45b8	-4.2248946e-14
127	0xa9479596	-4.431662e-14

linear.weight f4 [4, 17920]
0	0x244cf5bb	4.444359e-17
1	0x2d7e37ff	1.4450662e-11
2	0xb5eb36fa	-1.7524865e-06
3	0xb64bd3c1	-3.0372614e-06
4	0xa74cfff7	-2.8449446e-15
5	0xb3f28fa7	-1.12951334e-07
6	0x2c8ae3af	3.947474e-12
7	0xafab3ee3	-3.1149403e-10
8	0x23245dd4	8.910327e-18
9	0xab1c85e5	-5.560815e-13
10	0x271c6845	2.1705874e-15
11	0x248f909b	6.2261335e-17
12	0x2c54f775	3.0264378e-12
13	0xa823906f	-9.079637e-15
14	0xb1bd2407	-5.50472e-09
15	0xaa6e4e4b	-2.116581e-13
16	0xa7b6739f	-5.0640504e-15
17	0x255a93c8	1.8958556e-16
18	0xa61cdd3b	-5.4423196e-16
19	0x291b2316	3.4447346e-14
20	0xb282e772	-1.5239241e-08
21	0xa7d8519a	-6.0040516e-15
22	0xa79954df	-4.255805e-15
23	0xa3f59e92	-2.663011e-17
24	0xb76f9ea0	-1.4282443e-05
25	0x2c892d4f	3.8988045e-12
26	0xaa750b64	-2.1764323e-13
27	0xa814b4ad	-8.254828e-15
28	0xab18f628	-5.434286e-13
29	0xb5e35852	-1.6938523e-06
30	0xab32bef1	-6.350329e-13
31	0xa7d1887e	-5.815714e-15
32	0x2516c4e7	1.3077139e-16
33	0x26da151f	1.5132514e-15
34	0x2cf106f5	6.8504044e-12
35	0xb6b1f0c0	-5.303038e-06
36	0xa5097331	-1.1921884e-16
37	0xb29ce903	-1.8266752e-08
38	0x298147be	5.741196e-14
39	0x2b82349b	9.251657e-13
40	0x251aa07f	1.3411749e-16
41	0xade67e41	-2.620404e-11
42	0xb4477948	-1.8577441e-07
43	0x2925937d	3.6765286e-14
44	0x255288cf	1.8260949e-16
45	0xa5139d5d	-1.2803534e-16
46	0xb3b080ef	-8.2190915e-08
47	0x2461228c	4.881836e-17
48	0xb7db9e9e	-2.6180696e-05
49	0xb1499507	-2.9334062e-09
50	0x2d935336	1.6748918e-11
51	0xb83fa4c4	-4.56914e-05
52	0x25401861	1.6661605e-16
53	0xb5031c88	-4.884282e-07
54	0xb5888aad	-1.017315e-06
55	0xa56e2908	-2.0657111e-16
56	0x29612d29	4.9999206e-14
57	0xb6170d74	-2.2508584e-06
58	0xba8ad425	-0.0010591788
59	0xb86b0331	-5.603134e-05
60	0x23f94e48	2.7029787e-17
61	0xb82bf240	-4.099519e-05
62	0xb83114c3	-4.2219424e-05
63	0xb116a8c4	-2.1923805e-09
64	0xb4e426f5	-4.2496654e-07
65	0xa2a80331	-4.553987e-18
66	0x23fa4a36	2.7136484e-17
67	0x252cab08	1.497657e-16
68	0x2992aafa	6.513362e-14
69	0xa0597466	-1.8419128e-19
70	0x211efd77	5.386794e-19
71	0x22d34edd	5.7275164e-18
72	0x23da3ad6	2.3660525e-17
73	0xb71c3786	-9.311252e-06
74	0xb6370581	-2.7272329e-06
75	0xb8dfd9c7	-0.00010674033
76	0xa4f93948	-1.08083575e-16
77	0x2570b5a8	2.0878229e-16
78	0xb5003efa	-4.777536e-07
79	0xb5674dc1	-8.616735e-07
80	0xb739f341	-1.1083496e-05
81	0xb40bebb9	-1.3031139e-07
82	0xb8a2824c	-7.749032e-05
83	0xa42a73db	-3.6961007e-17
84	0x24212ec3	3.495092e-17
85	0x22ac035e	4.662426e-18
86	0xa1d8df08	-1.4695765e-18
87	0x26f5f4dd	1.706666e-15
88	0x239689a2	1.6321322e-17
89	0x22a759ea	4.536064e-18
90	0x2293425c	3.991469e-18
91	0x22a6d624	4.522112e-18
92	0xa3d7ec7a	-2.3410498e-17
93	0x21d45692	1.4388594e-18
94	0x2016fd82	1.2789373e-19
95	0x2275318f	3.3229928e-18
96	0x24550cfc	4.619801e-17
97	0x26f9923f	1.7317486e-15
98	0xa4ae287d	-7.552906e-17
99	0x269152a2	1.0083794e-15
100	0x22847980	3.5907315e-18
101	0xa7d44fde	-5.8928412e-15
102	0xaa8c34c7	-2.4905617e-13
103	0xa25867fa	-2.9328503e-18
104	0xa2e6fe8d	-6.261114e-18
105	0xa0e9d506	-3.9612702e-19
106	0x224fb274	2.8148204e-18
107	0x2937b9b7	4.0795245e-14
108	0x2980b634	5.715949e-14
109	0x2171a8b2	8.187724e-19
110	0x236eda9d	1.2948299e-17
111	0xa32c253e	-9.332025e-18
112	0x2214746d	2.0119375e-18
113	0x219e2126	1.0715271e-18
114	0x221a5fdb	2.0921637e-18
115	0x2131cb0d	6.023867e-19
116	0xa23429c6	-2.4416664e-18
117	0x219e46b3	1.072521e-18
118	0x22a6164f	4.501801e-18
119	0x206ba6e3	1.9960492e-19
120	0xa1470622	-6.743194e-19
121	0xa1a56d68	-1.1209794e-18
122	0xa20380ed	-1.7822063e-18
123	0xa1082bd8	-4.613662e-19
124	0xa11de049	-5.349051e-19
125	0x2157213b	7.2888814e-19
126	0x217a54dc	8.4815605e-19
127	0xa13424ff	-6.1035336e-19
128	0xa27ad177	-3.3992208e-18
129	0x216d7f62	8.0467313e-19
130	0x20a3ac33	2.7727226e-19
131	0x209e48b5	2.6814355e-19
132	0xa165cb43	-7.7857233e-19
133	0x2155eb80	7.247889e-19
134	0xa29535c2	-4.044345e-18
135	0xa1345cfe	-6.1109446e-19
136	0x220184bc	1.755303e-18
137	0xa112126a	-4.9491095e-19
138	0xa114e67f	-5.044941e-19
139	0x208bf3ec	2.370893e-19
140	0xb4bdc813	-3.5349566e-07
141	0xb72121a1	-9.604178e-06
142	0x2612c5fe	5.0922255e-16
143	0xb4d2ea28	-3.928592e-07
144	0x23542725	1.1500832e-17
145	0xb8162659	-3.57985e-05
146	0x22198771	2.0807069e-18
147	0x25549d6e	1.8441408e-16
148	0xaa74d7b9	-2.1746397e-13
149	0xb4467ee3	-1.8486348e-07
150	0xa2418db8	-2.6231403e-18
151	0x25473623	1.7278841e-16
152	0xb31ba398	-3.6237537e-08
153	0xb4b41ea9	-3.354992e-07
154	0x270edb6f	1.9825414e-15
155	0xab03e557	-4.685882e-13
156	0xb34ef70e	-4.8187808e-08
157	0x2990fe05	6.43895e-14
158	0x2d773e32	1.4054135e-11
159	0xb27acabb	-1.4598011e-08
160	0xb415aefb	-1.3940364e-07
161	0xb1eea12e	-6.9450357e-09
162	0xab21c4a0	-5.747156e-13
163	0xb8fd4552	-0.00012076892
164	0xa60c6650	-4.8710917e-16
165	0xb0592725	-7.899977e-10
166	0xb3f9dcce	-1.163513e-07
167	0x21ea9f46	1.5898616e-18
168	0xb82ee166	-4.169475e-05
169	0xb2cde641	-2.3969848e-08
170	0x2d88b8ab	1.5543419e-11
171	0x229428ee	4.0158816e-18
172	0x229a0d96	4.175617e-18
173	0x2542bc32	1.6890581e-16
174	0xa2191a65	-2.074934e-18
175	0xab22c259	-5.7823673e-13
176	0x22740a0a	3.307348e-18
177	0xa2ba2020	-5.0449415e-18
178	0xb471e1f1	-2.2527071e-07
179	0xb0a308e9	-1.1862343e-09
180	0xaae45e00	-4.0566162e-13
181	0xa2af669f	-4.75425e-18
182	0x244d4bb6	4.451642e-17
183	0x257a5a6e	2.1714682e-16
184	0xa298bf69	-4.1402346e-18
185	0xab3141db	-6.2974425e-13
186	0xa20300a3	-1.7754148e-18
187	0xa285747d	-3.617306e-18
188	0xa2b52392	-4.909781e-18
189	0xa245ad94	-2.679037e-18
190	0xb8d6b4ee	-0.00010238016
191	0xb2c0c146	-2.2439632e-08
192	0xa3cf5efc	-2.2483212e-17
193	0xb0786099	-9.035915e-10
194	0x2984186e	5.8662154e-14
195	0x22a39d65	4.4347886e-18
196	0xb3654c69	-5.3387712e-08
197	0xa08f833e	-2.431199e-19
198	0xb665d861	-3.4249608e-06
199	0xb28ba2c6	-1.625575e-08
200	0x22e3ba1e	6.1725533e-18
201	0xa3e33d3b	-2.4637321e-17
202	0xb3e28a5a	-1.0549111e-07
203	0xaff59136	-4.466842e-10
204	0xa10e2dd4	-4.8172124e-19
205	0x21150892	5.0494506e-19
206	0x211e61a3	5.3661703e-19
207	0x218653a2	9.102331e-19
208	0xa2410482	-2.6158764e-18
209	0x21d05558	1.4117219e-18
210	0x20517dc8	1.7744606e-19
211	0xa044d2a9	-1.6671547e-19
212	0xa1a3f263	-1.1109469e-18
213	0xa224ba3c	-2.2324736e-18
214	0xa2d46fc1	-5.758104e-18
215	0x25717503	2.0943063e-16
216	0xa19b2115	-1.0511965e-18
217	0xa08129ec	-2.1881192e-19
218	0xa1de703d	-1.5073014e-18
219	0xa310fcbe	-7.859776e-18
220	0xa4dff484	-9.712506e-17
221	0xa209fed6	-1.8701871e-18
222	0x2187ca00	9.201425e-19
223	0xa121c765	-5.481282e-19
224	0xa858f8aa	-1.2044329e-14
225	0xa183bfec	-8.927707e-19
226	0x21ca6957	1.3715936e-18
227	0xa63edcf5	-6.6218945e-16
228	0x2319fb59	8.3473716e-18
229	0xa13fdfec	-6.5009675e-19
230	0x21207e1d	5.437702e-19
231	0xa61e48fe	-5.4916185e-16
232	0x26b520b8	1.2568266e-15
233	0x2b2ff1fb	6.2508305e-13
234	0x20b04474	2.9860858e-19
235	0xab2c7b63	-6.127791e-13
236	0x9f7c5d88	-5.3440443e-20
237	0xa1816440	-8.767916e-19
238	0xa3a61e6a	-1.8010637e-17
239	0x25dbd97b	3.8137815e-16
240	0x26e00f04	1.5547192e-15
241	0x223736c6	2.4830122e-18
242	0xa1a5d95b	-1.1238368e-18
243	0xaadedc60	-3.9588038e-13
244	0xa13d94d5	-6.423267e-19
245	0x1f74e373	5.185715e-20
246	0x218ee44e	9.682726e-19
247	0x2361437c	1.2211565e-17
248	0xa1a225ff	-1.0987604e-18
249	0xa30cfdd6	-7.643167e-18
250	0xa2c6befd	-5.3870224e-18
251	0x2030334c	1.4924753e-19
252	0xa29a61cc	-4.184533e-18
253	0x22001073	1.7355943e-18
254	0xa2872b48	-3.663765e-18
255	0xa38c7718	-1.5229269e-17

linear.bias f4 [4]
0	0xbe0b54e6	-0.13606605
1	0xbe46ee11	-0.19426753
2	0x3e53cd40	0.20683765
3	0xbe1d846b	-0.15382545
